Model: "goemotions_attention"
┏━━━━━━━━━━━━━━━━━━━━━━━━━━━━━━━━━━━━━━┳━━━━━━━━━━━━━━━━━━━━━━━━━━━━━┳━━━━━━━━━━━━━━━━━┓
┃ Layer (type)                         ┃ Output Shape                ┃         Param # ┃
┡━━━━━━━━━━━━━━━━━━━━━━━━━━━━━━━━━━━━━━╇━━━━━━━━━━━━━━━━━━━━━━━━━━━━━╇━━━━━━━━━━━━━━━━━┩
│ input_layer (InputLayer)             │ (None, 1)                   │               0 │
├──────────────────────────────────────┼─────────────────────────────┼─────────────────┤
│ text_vectorization                   │ (None, 100)                 │               0 │
│ (TextVectorization)                  │                             │                 │
├──────────────────────────────────────┼─────────────────────────────┼─────────────────┤
│ embedding (Embedding)                │ (None, 100, 256)            │       2,560,000 │
├──────────────────────────────────────┼─────────────────────────────┼─────────────────┤
│ bidirectional (Bidirectional)        │ (None, 100, 128)            │         164,352 │
├──────────────────────────────────────┼─────────────────────────────┼─────────────────┤
│ dropout (Dropout)                    │ (None, 100, 128)            │               0 │
├──────────────────────────────────────┼─────────────────────────────┼─────────────────┤
│ attention_pooling (AttentionPooling) │ (None, 128)                 │             129 │
├──────────────────────────────────────┼─────────────────────────────┼─────────────────┤
│ dense_1 (Dense)                      │ (None, 64)                  │           8,256 │
├──────────────────────────────────────┼─────────────────────────────┼─────────────────┤
│ dropout_1 (Dropout)                  │ (None, 64)                  │               0 │
├──────────────────────────────────────┼─────────────────────────────┼─────────────────┤
│ dense_2 (Dense)                      │ (None, 28)                  │           1,820 │
└──────────────────────────────────────┴─────────────────────────────┴─────────────────┘
 Total params: 2,734,557 (10.43 MB)
 Trainable params: 2,734,557 (10.43 MB)
 Non-trainable params: 0 (0.00 B)
Epoch 1/20
1357/1357 ━━━━━━━━━━━━━━━━━━━━ 245s 176ms/step - binary_accuracy: 0.9572 - loss: 0.1451 - precision: 0.4752 - recall: 0.1801 - val_binary_accuracy: 0.9663 - val_loss: 0.1061 - val_precision: 0.7124 - val_recall: 0.3296
…
