Model: "goemotions_baseline"
┏━━━━━━━━━━━━━━━━━━━━━━━━━━━━━━━━━━━━━━┳━━━━━━━━━━━━━━━━━━━━━━━━━━━━━┳━━━━━━━━━━━━━━━━━┓
┃ Layer (type)                         ┃ Output Shape                ┃         Param # ┃
┡━━━━━━━━━━━━━━━━━━━━━━━━━━━━━━━━━━━━━━╇━━━━━━━━━━━━━━━━━━━━━━━━━━━━━╇━━━━━━━━━━━━━━━━━┩
│ input_layer (InputLayer)             │ (None, 1)                   │               0 │
├──────────────────────────────────────┼─────────────────────────────┼─────────────────┤
│ text_vectorization                   │ (None, 100)                 │               0 │
│ (TextVectorization)                  │                             │                 │
├──────────────────────────────────────┼─────────────────────────────┼─────────────────┤
│ embedding (Embedding)                │ (None, 100, 128)            │       1,280,000 │
├──────────────────────────────────────┼─────────────────────────────┼─────────────────┤
│ bidirectional (Bidirectional)        │ (None, 100, 128)            │          98,816 │
├──────────────────────────────────────┼─────────────────────────────┼─────────────────┤
│ global_average_pooling1d             │ (None, 128)                 │               0 │
│ (GlobalAveragePooling1D)             │                             │                 │
├──────────────────────────────────────┼─────────────────────────────┼─────────────────┤
│ dropout (Dropout)                    │ (None, 128)                 │               0 │
├──────────────────────────────────────┼─────────────────────────────┼─────────────────┤
│ dense (Dense)                        │ (None, 64)                  │           8,256 │
├──────────────────────────────────────┼─────────────────────────────┼─────────────────┤
│ dropout_1 (Dropout)                  │ (None, 64)                  │               0 │
├──────────────────────────────────────┼─────────────────────────────┼─────────────────┤
│ dense_1 (Dense)                      │ (None, 28)                  │           1,820 │
└──────────────────────────────────────┴─────────────────────────────┴─────────────────┘
 Total params: 1,388,892 (5.30 MB)
 Trainable params: 1,388,892 (5.30 MB)
 Non-trainable params: 0 (0.00 B)
Epoch 1/20
1357/1357 ━━━━━━━━━━━━━━━━━━━━ 148s 105ms/step - binary_accuracy: 0.9551 - loss: 0.1526 - precision: 0.3775 - recall: 0.1056 - val_binary_accuracy: 0.9632 - val_loss: 0.1219 - val_precision: 0.6291 - val_recall: 0.3028
…
