Model: "goemotions_stacked"
┏━━━━━━━━━━━━━━━━━━━━━━━━━━━━━━━━━━━━━━┳━━━━━━━━━━━━━━━━━━━━━━━━━━━━━┳━━━━━━━━━━━━━━━━━┓
┃ Layer (type)                         ┃ Output Shape                ┃         Param # ┃
┡━━━━━━━━━━━━━━━━━━━━━━━━━━━━━━━━━━━━━━╇━━━━━━━━━━━━━━━━━━━━━━━━━━━━━╇━━━━━━━━━━━━━━━━━┩
│ input_layer (InputLayer)             │ (None, 1)                   │               0 │
├──────────────────────────────────────┼─────────────────────────────┼─────────────────┤
│ text_vectorization                   │ (None, 100)                 │               0 │
│ (TextVectorization)                  │                             │                 │
├──────────────────────────────────────┼─────────────────────────────┼─────────────────┤
│ embedding (Embedding)                │ (None, 100, 256)            │       2,560,000 │
├──────────────────────────────────────┼─────────────────────────────┼─────────────────┤
│ bidirectional (Bidirectional)        │ (None, 100, 128)            │         164,352 │
├──────────────────────────────────────┼─────────────────────────────┼─────────────────┤
│ bidirectional_1 (Bidirectional)      │ (None, 128)                 │          98,816 │
├──────────────────────────────────────┼─────────────────────────────┼─────────────────┤
│ dropout (Dropout)                    │ (None, 128)                 │               0 │
├──────────────────────────────────────┼─────────────────────────────┼─────────────────┤
│ dense (Dense)                        │ (None, 64)                  │           8,256 │
├──────────────────────────────────────┼─────────────────────────────┼─────────────────┤
│ dropout_1 (Dropout)                  │ (None, 64)                  │               0 │
├──────────────────────────────────────┼─────────────────────────────┼─────────────────┤
│ dense_1 (Dense)                      │ (None, 28)                  │           1,820 │
└──────────────────────────────────────┴─────────────────────────────┴─────────────────┘
 Total params: 2,833,244 (10.81 MB)
 Trainable params: 2,833,244 (10.81 MB)
 Non-trainable params: 0 (0.00 B)
Epoch 1/20
1357/1357 ━━━━━━━━━━━━━━━━━━━━ 378s 270ms/step - binary_accuracy: 0.9563 - loss: 0.1512 - precision: 0.4343 - recall: 0.1341 - val_binary_accuracy: 0.9644 - val_loss: 0.1191 - val_precision: 0.6424 - val_recall: 0.3412
…
